Cifar10imageclassification/CNN/convnet.pt (torch_old, 612049 bytes, 8 tensors)

conv1.weight f4 [6, 3, 5, 5]
000000 e9 22 6e 3d 30 f2 63 bd d7 a0 be bc 83 a1 85 3d
       0.05813876 -0.05565089 -0.023270054 0.065249465
000010 3c cd b5 bd c7 78 98 3d da 50 c1 bc 21 1d 7f 3d
       -0.08877036 0.074449115 -0.023598123 0.06228364
000020 f7 da fe 3c 5a bb 10 3c 70 06 1a 3d 33 12 70 3b
       0.03111027 0.008833731 0.037603796 0.0036631941
000030 13 3e 2c 3d 57 4f 0c bd 65 3c 6f 3c 4a d5 8a bc
       0.042051386 -0.034255352 0.0146018015 -0.016947407
000040 c1 87 71 3b b7 a2 5e bc 45 e9 c5 3d 68 61 38 3d
       0.0036854597 -0.013588599 0.09663633 0.04501477
000050 6e f5 82 bd dc 15 bf bd c3 a2 2b bd 3f 96 89 bd
       -0.06394468 -0.09330341 -0.04190327 -0.0671811
000060 a4 f3 3e bd 51 8a 18 3b 63 93 81 3d cf 75 73 3d
       -0.046619073 0.0023275802 0.0632694 0.059438523
000070 c6 6b de bd d1 da a7 3d a0 83 05 3d f5 34 da 3d
       -0.108604 0.08196033 0.03259623 0.10654632
000080 1f 9c 99 3d 54 e3 cb bd 4d 59 cb bd 95 de 65 bd
       0.07500481 -0.09955469 -0.09929142 -0.056120474
000090 fb c3 c4 3d 68 41 c0 bc ff 75 53 3d 4a 1a 37 bd
       0.09607693 -0.023468688 0.0516262 -0.044702806
0000a0 57 40 d7 3d e5 31 7b bd 75 21 97 3d 59 63 d4 bb
       0.10510319 -0.06132688 0.07379428 -0.0064815697
0000b0 e9 76 79 bd 9b a7 2e 3d 55 60 a3 bd 99 64 81 3c
       -0.060904417 0.04264031 -0.07977358 0.015795039
0000c0 af 8a 47 bd c5 2a c1 bc af 17 c6 bd 6a bf 30 bd
       -0.048716243 -0.023579964 -0.09672486 -0.043151297
0000d0 54 28 9b 3d 05 3d 1d bc c1 37 0d 3e ff 4a de 3d
       0.07576051 -0.009597068 0.137908 0.10854148
0000e0 72 31 f4 3b f9 ed 81 bd 86 00 b6 3d 9b a1 6d 3d
       0.0074521834 -0.06344218 0.088868186 0.058015447
0000f0 49 65 73 bd fb 7d af 3d ea 9a a5 3d 9c bc f1 3d
       -0.059422765 0.08568951 0.08086188 0.118035525
000100 b3 dd 33 bd c0 04 1f bc 5f 21 4d 3b 4f ab ae 3c
       -0.0439126 -0.009705722 0.0031300408 0.02132192
000110 1a ef a2 bd 0d 5d 8b bd 3c 80 86 3d 51 a1 d2 bc
       -0.07955761 -0.068048574 0.065674275 -0.025711687
000120 36 60 6b 3d 1b bd 17 3c d2 82 32 3d 3e 98 a4 3c
       0.0574648 0.009261395 0.04358179 0.020092126
000130 e8 83 c8 3c 3e 4f e6 3c e9 64 09 be aa 8d f5 3c
       0.02447696 0.028113957 -0.134174 0.029974777
000140 39 e3 b0 bd a3 64 e3 bd 55 cd 09 bd 1b 9f 55 bd
       -0.08637089 -0.11103179 -0.033643086 -0.052153688
000150 3c d2 19 3d 01 ed a1 bd 11 35 08 be 70 2e 14 3d
       0.03755401 -0.07906533 -0.13301493 0.0361771
000160 64 22 4a bd 4f ee 25 3d 4d 1f 89 3c 2d c5 fb bd
       -0.049349204 0.040510472 0.016738558 -0.12293468
000170 8b 57 d3 bc b6 37 88 bb 88 e7 c7 bd d1 b0 9f bd
       -0.02579858 -0.004157032 -0.09760958 -0.07797397
000180 91 76 9c 3b 45 3c 8a bc 37 3e 95 bd 56 40 52 bd
       0.0047748764 -0.016874442 -0.07287257 -0.051330887
000190 45 0a f7 3d 41 db 6f bc 98 1e 84 3d 21 4f 52 3d
       0.12062506 -0.014639677 0.06451148 0.051344994
0001a0 5f f8 93 bd 0f 24 a8 bd 13 d6 ea 3d 69 00 54 ba
       -0.072251074 -0.08210003 0.11466613 -0.00080872193
0001b0 31 9b a0 3d 1f 59 d4 3c 48 2b 49 3d de 13 b0 3d
       0.078421004 0.025921402 0.04911354 0.08597539
0001c0 63 8e c8 3d 0e 40 9e bd 6f d4 a2 3c d5 77 bb 3d
       0.09792783 -0.07727061 0.019876687 0.091537155
0001d0 18 63 a0 3d c4 57 6f 3d e4 aa ae bd 80 af 9c bd
       0.07831401 0.05843331 -0.085286885 -0.076506615
0001e0 8a 57 8d bd f0 b1 f2 3b 4b ef d9 3d 61 5f 93 bd
       -0.069014624 0.0074064657 0.10641345 -0.071959265
0001f0 10 5e 8b 3d 00 22 78 bc 3a 10 89 bd 41 ef 28 3c
       0.068050504 -0.015144825 -0.06692548 0.010310949
000200 9e a9 d1 3d 0a 87 13 3e 8f 66 b0 bc d5 b7 84 3d
       0.1023743 0.14406982 -0.021533279 0.06480376
000210 0f 21 05 3e 31 8a e3 3d 7f 27 de 3d 10 e7 03 3e
       0.13000892 0.11110342 0.10847377 0.12881112
000220 d4 bf df 3d 29 5d 66 3d 60 71 36 bd 1a e2 6e bd
       0.1092526 0.05624119 -0.044541717 -0.058321096
000230 01 98 48 bc be 44 92 3c 97 ef 3d bd ad 26 9a 3d
       -0.012243272 0.017855044 -0.04637107 0.07526908
000240 30 04 99 3d e8 41 20 3c 87 92 95 3d 0b cd 83 3d
       0.07471502 0.009781338 0.073033385 0.06435593
000250 ff ca d6 3d 7d 69 ed 3d b5 9d 5c bd 6e 56 d0 3d
       0.10487937 0.11592386 -0.05386134 0.10172735
000260 20 95 bb bc 17 51 61 bc ca 7a 00 be 00 1c ea bd
       -0.022898257 -0.0137522435 -0.1254684 -0.11431122
000270 96 84 c6 bd 41 ab 9b bd 6d 48 55 3d 31 fb 80 bd
       -0.096932575 -0.076010235 0.052071024 -0.06297911
000280 74 03 e5 bd bb 9d 08 3d d7 29 05 3d 26 be 68 3d
       -0.11182299 0.03335355 0.032510605 0.056821965
000290 92 c0 9b bd 46 54 24 3d 1b 1c b9 bc 99 85 bb 3b
       -0.07605089 0.040119432 -0.02259641 0.005722713
0002a0 f2 b6 93 bd 4d 7b 2c bd a7 70 92 3c 57 5b c5 3d
       -0.072126284 -0.042109776 0.017875982 0.09636562
0002b0 8d b4 a5 3d 24 8e b1 3d 68 c1 24 3e e3 af c0 3d
       0.08091078 0.08669689 0.16089404 0.09408548
0002c0 49 f3 7b 3d 60 52 52 bc 10 c9 c5 bd 6e 97 8e 3d
       0.06151131 -0.012837023 -0.0965749 0.06962477
0002d0 af 2b 73 bd 3f 1f 0d bd cd 52 fd bd 85 d9 4b bd
       -0.05936783 -0.034453627 -0.123693086 -0.04976799
0002e0 94 1d ca bd 8d 77 ac 3d 9a b2 e9 bd 1b 51 cf bd
       -0.09868923 0.0842124 -0.11411019 -0.101228915
0002f0 f4 06 c3 bc fb 6b a7 bd 74 18 29 3d 37 30 2f bd
       -0.023807026 -0.081748925 0.041283086 -0.04277059
000300 2a 62 3a bd 47 16 01 3c a2 36 a0 3d ac 37 7f bd
       -0.045503773 0.0078788465 0.078229204 -0.062308952
000310 64 d6 8c 3d 62 6e c5 3d 6d 0d 09 3e 2d 6d 8c bd
       0.06876829 0.096401945 0.13384028 -0.06856761
000320 fd b8 d3 3c 23 a8 b0 bd 98 07 c9 3d 79 22 3d bd
       0.025845045 -0.086258195 0.098159015 -0.046175454
000330 96 60 84 3d b6 44 e6 bb 57 7b 77 bc d6 2e 16 bc
       0.06463735 -0.007027234 -0.01510509 -0.00916644
000340 4e d8 35 3c 60 a4 41 3d aa b5 66 3c 98 38 16 3d
       0.011098934 0.0472759 0.014081398 0.036675066
000350 06 f6 cb bd 1d cf a5 3d ec d4 c6 3d 13 80 da 3d
       -0.099590346 0.08096144 0.097085804 0.106689595
000360 25 58 c8 3d 90 32 85 bd 3c 5a fb bc 1c 4a dd 3d
       0.09782437 -0.06503785 -0.030682676 0.10805151
000370 1e e9 81 bd b4 b7 00 3e 13 89 82 bd 9b 7c 62 bd
       -0.06343292 0.12570077 -0.06373801 -0.055294614
000380 44 1c 9a 3d 16 5b e3 bd 73 0c 69 bd b7 d7 87 3d
       0.075249225 -0.11101358 -0.056896638 0.06632941
000390 c6 93 97 3d dd fc ac 3d d3 df 48 bd 26 b0 dd bd
       0.074012324 0.08446667 -0.04904158 -0.10824613
0003a0 c6 b3 f7 3d 27 b7 ca bc 9c 71 87 bd f5 b2 4b 3c
       0.12094836 -0.024745537 -0.06613466 0.012432803
0003b0 56 4c bb bd 4e b9 b8 3d 55 de b1 3d 3b 74 d5 bd
       -0.09145419 0.09019719 0.086849846 -0.1042256
0003c0 0c 77 b9 bd f9 d8 30 3a 29 b7 98 3d 87 88 d3 3c
       -0.090559095 0.00067461986 0.0745681 0.025821937
0003d0 ad e3 45 bd 54 88 b6 3c ee eb b2 bd f7 80 69 bd
       -0.04831283 0.022281803 -0.08736406 -0.057007756
0003e0 4b 98 3e bd 25 e6 01 3e 6a b6 d0 3d 84 52 1e bd
       -0.046531957 0.1268545 0.10191043 -0.03865291
0003f0 1f e3 86 3c d6 91 83 3d e0 45 bd 3c 43 17 71 bd
       0.016465722 0.064243004 0.023104608 -0.058860075

conv1.bias f4 [6]
000000 c2 48 18 3d 83 e7 8c 3d 5d 5a df 3d fb c8 b4 3a
       0.037178762 0.06880095 0.10905907 0.0013792807
000010 90 e4 eb 3d 0a 49 9d 3d
       0.11518204 0.07679947

fc1.weight f4 [120, 1176]
000000 f9 92 51 bc a3 f1 ab bc 90 c2 91 3c af fe 70 bc
       -0.012791389 -0.020989245 0.01779297 -0.014709159
000010 ef 80 70 3c f3 85 c0 bc 37 27 ba 3c f1 53 23 3c
       0.014679178 -0.023501372 0.022723777 0.009968744
000020 84 dc 10 bb 55 f5 6b 3c 3e fb 9f bc 39 09 a4 bb
       -0.0022104094 0.014401753 -0.019528981 -0.0050059822
000030 e2 b2 00 3b de 38 76 bc a1 ca cd bb 2b 0c 40 bc
       0.0019637872 -0.015028207 -0.0062802588 -0.011721651
000040 09 78 e8 3c 9d 1b ce 3c 52 72 d1 3c 90 09 c7 3c
       0.02837755 0.025159651 0.025567207 0.024296552
000050 08 a4 e0 bc 86 8c 25 3c 50 f4 36 3c ec 71 ae bc
       -0.027421966 0.010104304 0.011166647 -0.021294557
000060 ed 20 45 3c f9 3d 7c bc d3 41 b1 3b 70 ae 30 3c
       0.012031776 -0.015395635 0.005409458 0.010783777
000070 3a 2e d5 3c 8b ca 71 bc 05 6a b9 bc 90 3d de 3c
       0.02602302 -0.014757763 -0.022633562 0.027128965
000080 99 0e 4a 3c 4e f4 69 3c 69 08 30 3c 11 7e 25 bc
       0.012332582 0.014279438 0.010744193 -0.010100857
000090 f4 bc 8f 3c a8 bb d1 bc e2 67 80 3b e8 ae 58 3c
       0.017546155 -0.025602177 0.003918634 0.013225295
0000a0 81 8e a4 3c 35 7f 67 bc 67 ed 9b bc b6 43 3a 3c
       0.020087482 -0.01412945 -0.0190341 0.011368683
0000b0 81 ac bb bc fa ef c6 bc a2 ec d7 bc 3f 94 68 bc
       -0.022909405 -0.024284352 -0.026357953 -0.014195501
0000c0 90 00 b2 bb e7 8e 8c bc 72 66 4d bc f0 30 d6 bc
       -0.005432196 -0.017157985 -0.012536632 -0.026146382
0000d0 e9 0e 91 3c 20 eb dd bb d5 ee 96 bc b8 52 fd 3b
       0.017707305 -0.006772414 -0.01842443 0.007730808
0000e0 89 46 ad bc 82 e4 a9 3c d7 38 8b 3c 0b 04 ea bc
       -0.021151798 0.020738844 0.016994877 -0.028566381
0000f0 91 41 bc bc f9 e2 9d bc 76 3f 82 bc 5b c1 6a 3b
       -0.022980483 -0.019273268 -0.015899401 0.0035820815
000100 cf fb ed bc 63 b1 b2 bc 24 f0 57 3c af 0a 1e bc
       -0.029050736 -0.0218131 0.013179813 -0.009646102
000110 d5 98 41 bc 82 96 c5 bc 49 27 4c 3c 3e 3c 26 3b
       -0.011816223 -0.02411962 0.012460538 0.0025365497
000120 da 43 31 bc ff 14 90 bc ec fb c8 3b 9c b8 03 3c
       -0.0108194 -0.017588137 0.006133547 0.00803962
000130 e6 00 55 3c 74 66 0b 3c 88 fb 92 bb 34 ec b8 bc
       0.0130007025 0.008508313 -0.0044855513 -0.022573568
000140 7b 04 96 3c f6 98 12 ba cf 8e a0 bc 60 ad cd 3c
       0.018312683 -0.0005592251 -0.019599346 0.025107086
000150 73 61 8c 3c 0b 6f b6 bc 13 e8 67 bc ce 32 1f bc
       0.017136311 -0.022269746 -0.014154452 -0.009716703
000160 ac ba 89 bc 21 a1 5f 3c 91 a1 ab bc 14 be dc 3c
       -0.016812645 0.013649256 -0.020951064 0.026946105
000170 39 25 48 bc ff 41 8b 3c f0 3c 5b 3a 23 c5 58 bc
       -0.012215906 0.016999243 0.00083632674 -0.013230595
000180 95 38 9d 3c 34 21 b8 bc 57 b3 6e bc 21 c9 85 3b
       0.01919202 -0.02247677 -0.014569125 0.0040828143
000190 16 74 c0 3c 4c b5 4b bc 35 90 93 bc fc 06 9a bc
       0.023492854 -0.012433361 -0.0180131 -0.018802159
0001a0 ce 5b 57 bc ef 02 28 bc 77 9f de bb 75 57 88 bc
       -0.013144447 -0.010254606 -0.006793912 -0.016643265
0001b0 7f 72 14 3c c6 f6 bc 38 b9 fb 9c bc d8 99 89 bc
       0.009060501 9.010504e-05 -0.019163 -0.016796991
0001c0 6b 94 e3 3b f9 cb a5 b8 a6 77 aa 3c 55 c3 8b bb
       0.006945183 -7.905806e-05 0.020809006 -0.0042652288
0001d0 04 fd c3 bc 77 c6 b6 bc 88 6e 14 bc f4 47 d6 bb
       -0.023924358 -0.022311432 -0.009059556 -0.006539339
0001e0 55 de 5a 3b 84 84 d1 bb 43 2e 31 3c 8d f9 22 bc
       0.003339668 -0.006393971 0.010814252 -0.009947193
0001f0 41 fb ac 3c bf 99 d2 3b 95 68 0a bc 41 3f d7 3c
       0.021115901 0.0064270194 -0.008447786 0.026275279
000200 f9 31 f9 3b a1 6a a1 bc 63 b6 86 bc 02 33 8e 3c
       0.007604834 -0.019704165 -0.01644439 0.017358307
000210 20 2d 4f 3c 74 12 bb 3c b0 39 f9 ba 47 c5 aa 3c
       0.012645036 0.022835948 -0.0019014385 0.020846022
000220 6d bb 70 3c 93 2c 11 3c 53 46 e4 bb a9 4e e2 3c
       0.014693123 0.008860725 -0.006966391 0.027625399
000230 52 08 d1 3b 51 66 ef bb eb 5c 69 b9 6d 6e ec 3c
       0.0063791657 -0.0073058982 -0.00022255226 0.028861249
000240 0c 62 9f 3c ed 70 33 bb c5 d2 e7 3c 00 7e 57 3c
       0.019455932 -0.0027380541 0.028298745 0.013152599
000250 17 98 7a bc 0b 20 d8 bc d3 fd 8b 3c 23 27 df 3c
       -0.01529505 -0.026382467 0.017088806 0.027240342
000260 ac 58 8d bc f5 4a 3e 3c ff 69 f9 3a a0 18 be bb
       -0.017254196 0.011614551 0.0019028782 -0.0058012754
000270 85 97 f1 bb d0 ee 0b 3c 6e 08 d8 3b 9a 6e a1 3c
       -0.007372799 0.008540824 0.006592802 0.01970606
000280 eb 4d 2e 3c 25 f0 5d 3c 3b 5d d4 3c 36 42 18 3c
       0.010638694 0.013546024 0.025923362 0.00929313
000290 17 97 94 3b e7 4c 2e bc 36 81 ae 3c 7d 65 81 3b
       0.004534613 -0.010638452 0.021301847 0.003948866
0002a0 b0 e2 9d 3c 37 e1 ea 3c 48 37 c2 bb cf 1e ae 3c
       0.019273132 0.028671844 -0.005927 0.021254925
0002b0 6d 03 af bb 57 53 da 3c a4 55 be 3c 21 bd 25 bc
       -0.0053409846 0.026651068 0.023234196 -0.010115893
0002c0 83 8d cf 3a 2d d4 48 bc 98 77 39 bc d4 e6 bb bb
       0.001583502 -0.012257618 -0.011320017 -0.005734304
0002d0 b9 60 26 b9 d6 a3 25 bc f9 10 e0 bc 5f 23 8f bc
       -0.00015867026 -0.010109862 -0.027351843 -0.017472921
0002e0 88 69 13 bb 62 d4 12 bc 77 f7 b2 3c 18 ba c2 3c
       -0.0022493321 -0.008961769 0.021846516 0.023770377
0002f0 6b e6 99 3c 02 c6 5b 3c 1b 27 b9 bc ba b9 e4 3c
       0.01878663 0.013413908 -0.022601655 0.027920593
000300 aa 8c cf bc 9f 27 1b bc 2c 86 a8 bc e0 84 2e 3c
       -0.025335629 -0.009469896 -0.02057179 0.010651797
000310 ed 9f bc bc 8d 79 5b bc 77 a1 91 bc cf 6b 8b bc
       -0.023025477 -0.013395679 -0.017777188 -0.01701918
000320 b2 50 4e bc 6a 3a f3 3c 19 9c b3 ba 98 65 1f 3c
       -0.012592481 0.02969094 -0.0013703137 0.009728812
000330 6b 2a e5 bc 27 98 dd 3c 69 68 a5 bb 2c 98 cf bc
       -0.027974328 0.027050091 -0.005047847 -0.025341116
000340 2c 0c b3 3c 47 34 c9 bb 86 dc de 3c be 24 9f bc
       0.02185639 -0.006140265 0.027204763 -0.0194267
000350 7c 95 dc bc c4 ca b1 bc 67 13 54 3c 25 8e 40 bb
       -0.026926748 -0.021703131 0.012944079 -0.00293816
000360 46 b3 dc bc 70 50 b6 3b fe 4f e4 ba 59 e4 30 3c
       -0.026940953 0.005563788 -0.0017418859 0.01079663
000370 bb 6c 69 bc 7d 9b a3 bc a5 9a ad 3c 9d 36 4e bc
       -0.014247115 -0.019971604 0.021191904 -0.012586263
000380 84 c9 a9 3c d7 16 c3 3c 7b ed a7 bc eb 66 5e bc
       0.020725973 0.023814602 -0.020498982 -0.013574342
000390 76 94 5d 3b 07 5a e1 bc 6c 85 12 3c 58 7b 49 bc
       0.0033810413 -0.027508749 0.008942943 -0.012297474
0003a0 26 e9 56 bc e4 18 ba bc 67 3b 5e 3c 29 c4 96 bc
       -0.01311711 -0.022716947 0.013563967 -0.018404083
0003b0 54 bf b9 bc 22 dd dd bb ae 7f 83 bc 4b cb e8 bc
       -0.02267424 -0.006770746 -0.016052093 -0.02841725
0003c0 9b 6c 3d 3c 60 19 38 bc f6 f5 a5 3c 05 48 a9 3c
       0.011561538 -0.011236519 0.020258885 0.020664224
0003d0 c1 a9 97 bc 15 3e 8c bc 0e 8d 2c bc 27 a8 8a 3c
       -0.018513562 -0.017119447 -0.010531677 0.016925884
0003e0 ee 75 a1 ba 36 32 2c bc 91 21 95 3c 60 e8 e6 3c
       -0.0012318471 -0.010510018 0.018204482 0.028186977
0003f0 00 f5 b0 3c 50 9d b6 bc 3d 79 c7 bb ab 37 bb bb
       0.0216012 -0.02229181 -0.006087451 -0.0057134232

fc1.bias f4 [120]
000000 98 6d 90 3c da 36 95 39 55 2f 01 bc bf 86 ef 3c
       0.017630383 0.00028460362 -0.00788482 0.029239057
000010 9f 1e b1 3c 2a 44 01 3c 02 bc 92 b9 e0 27 7c bb
       0.021621047 0.007889787 -0.00027987367 -0.0038475916
000020 20 8c 96 bb 86 07 7b bc 2e 4c c2 3b cf fc 5b 3c
       -0.004594341 -0.015321618 0.0059294915 0.0134269735
000030 b7 46 85 3c 13 a3 82 3c cc b0 f3 3a 19 9a b1 3c
       0.016269071 0.0159469 0.0018592118 0.021679925
000040 a9 93 cf 3c 08 c4 b9 3c 07 32 2d bc 89 32 62 bb
       0.025338965 0.022676483 -0.0105710095 -0.0034514985
000050 38 0d 8a 3c 50 ca 8c bc de 2b 08 bc 41 27 da bc
       0.016852006 -0.017186314 -0.00831124 -0.026630046
000060 7e bc 98 3c e4 ce b7 3c 49 a9 12 3c ab ba 91 3c
       0.018644568 0.02243752 0.008951494 0.017789206
000070 1c 2a d4 bc 52 c5 92 3c f4 73 4b 3c 29 e7 4f bc
       -0.025898986 0.017916355 0.012417782 -0.01268939
000080 85 b4 66 3c 6e d4 9b 3c 01 ef 10 bc b8 db b8 bc
       0.014081125 0.019022193 -0.0088460455 -0.022565708
000090 f9 0b ec 3c be 6b 96 3c 52 77 5a 3b aa 64 79 3c
       0.028814303 0.018361922 0.003333528 0.015221754
0000a0 7d 22 b8 bc e0 02 ca 3c ce 0d 80 bc 67 d7 9b bb
       -0.022477383 0.024659574 -0.015631583 -0.0047559026
0000b0 98 74 eb 3c 95 d4 3b 3c d2 b0 4e bc 63 cc 80 bc
       0.02874212 0.011464258 -0.012615399 -0.01572246
0000c0 e3 bc 9b bc 3f fd 8d bc b0 2e 15 bc 2d cb bc bc
       -0.019010967 -0.017332671 -0.009105369 -0.0230461
0000d0 1c 88 a6 bc c2 b8 d5 bc e3 a2 80 bc bb 9d 01 3c
       -0.020328574 -0.026089076 -0.01570267 0.007911141
0000e0 36 a8 7d 3c d3 34 9c bc d7 b1 44 bb eb 95 ab 3c
       0.015481999 -0.019068157 -0.0030013227 0.02094551
0000f0 29 1e ce 3a 90 d0 27 bc 04 6f 8b 3c 61 42 32 bc
       0.0015725541 -0.010242596 0.01702071 -0.010880084
000100 32 dd 2b 3a 76 f9 4d 3c 65 83 7a bb d7 89 6a bc
       0.0006556093 0.012571683 -0.003822529 -0.01431509
000110 1c 30 de 3b 85 0e 83 3c a6 61 e2 3c 81 d9 92 3b
       0.0067806374 0.015998134 0.027634453 0.004481495
000120 ed fd 50 3c b0 68 2e 3c 7e 39 a7 bc b2 f0 cb bc
       0.012755853 0.010645077 -0.020413157 -0.024895046
000130 3c 7f 5c bc ac 2c d6 bb 3a e1 f9 bb 3f df 20 bc
       -0.013458069 -0.006536087 -0.007625726 -0.009818851
000140 a5 d7 ce 3b eb 91 f4 bb cd aa de bc 89 2e 9d bc
       0.006312328 -0.007463684 -0.027181054 -0.019187229
000150 6b 31 74 bc df a6 9d bb e7 77 94 bc 47 93 15 bc
       -0.01490436 -0.0048111524 -0.01812358 -0.009129352
000160 1b e6 f8 bb 1f 11 27 3c 6d 97 a4 bc 5f 05 b8 3c
       -0.00759579 0.010196953 -0.020091737 0.022463499
000170 0c 5c 60 3c 8d ae 76 ba a7 0c 87 3c 44 66 02 3c
       0.013693821 -0.00094101654 0.016485525 0.007958952
000180 8f f0 3b 3c 73 c5 b0 bc bd 91 9d 3c 4c 58 73 bc
       0.011470928 -0.021578526 0.019234532 -0.014852595
000190 89 69 a8 bc 26 bf b5 bc 9e 01 bd bc fb 01 e7 3c
       -0.020558136 -0.022185873 -0.02307206 0.028199187
0001a0 46 c8 03 bc 53 b8 86 bc ce 39 15 bc 11 d4 82 3b
       -0.008043354 -0.016445315 -0.00910802 0.0039925654
0001b0 41 d4 13 39 d5 98 d0 ba 75 f7 91 bc 22 5e c7 3c
       0.00014098083 -0.0015914688 -0.017818192 0.024336878
0001c0 4d a9 ed 3c 19 56 9d 3c f1 e2 d1 3b 4a 37 91 bc
       0.029011393 0.019206094 0.0064052274 -0.01772656
0001d0 ee c4 d9 3b f1 7c 3b 3c 44 2a 8f bc b4 b3 0b 3c
       0.0066457903 0.011443363 -0.017476209 0.008526731

fc2.weight f4 [84, 120]
000000 16 97 8d 3d c2 64 94 bd 31 0a b6 bb a1 cb 21 3d
       0.06913583 -0.072457805 -0.005555414 0.039500836
000010 7f 61 1c 3c 5f 8a 80 3d b9 22 97 bd 71 8d 95 bc
       0.009544729 0.06276392 -0.0737967 -0.018255921
000020 0e 94 5f 3d b0 81 bf bc 9a bb 45 bd 10 e3 0e 3c
       0.054584555 -0.02337727 -0.048274614 0.008721128
000030 83 b8 ac 3d 92 07 00 3c f5 64 21 bd 74 2f b0 bd
       0.0843363 0.007814305 -0.03940292 -0.08602801
000040 cc 6d 08 3d 18 67 8c bd f6 7a b4 bb 5e c3 12 3d
       0.033307835 -0.06855601 -0.005507822 0.035830848
000050 ec d6 94 bd d5 db ef 3b 03 d3 19 3d c4 ce 45 bd
       -0.072675556 0.007319907 0.037554752 -0.04829289
000060 f1 5f 06 bd 2e 6c a4 3d 1d cf ca bb 5b 04 25 3c
       -0.03280634 0.08028446 -0.0061892406 0.010071839
000070 f0 30 9f bb 9d 37 76 bc b3 fe ab bd 5e 92 1b 3d
       -0.0048581287 -0.015027908 -0.083981894 0.037981384
000080 24 2b 99 3d 02 8c 8c 3c 23 d9 c3 3c 42 b0 94 bd
       0.074789315 0.017156605 0.02390725 -0.07260181
000090 71 2d 90 bd 60 c4 8d 3c c6 86 80 bd 99 81 88 3d
       -0.07039917 0.017305553 -0.06275706 0.06665344
0000a0 48 25 89 bc 6a 4f 72 3d 77 5b 90 bd 29 4f 75 3d
       -0.01674141 0.059157766 -0.070486955 0.059889946
0000b0 81 ab 63 bd b8 23 b8 bd 84 40 32 bd 17 dd 88 3d
       -0.05558348 -0.08991188 -0.04351856 0.066827945
0000c0 21 53 a4 3d 7c 6e b0 bd e9 a3 b2 bc cc 60 bf bd
       0.08023668 -0.08614823 -0.021806674 -0.093446344
0000d0 c8 2d 59 bd 12 ed 82 bd f5 7a f6 3c 45 3a 15 3d
       -0.053022176 -0.06392874 0.030087927 0.036432523
0000e0 1c 82 9b bc 7c 79 a1 bc c7 06 8e 3d ff f7 57 3d
       -0.01898294 -0.019711249 0.069348864 0.052726742
0000f0 61 8f af 3d 6c fd 52 3d 09 a8 31 3c 16 d2 99 bd
       0.08572269 0.051511213 0.010843285 -0.07510774
000100 1a ad 8f bc 4e 07 d6 bc 20 c9 b4 3d 39 56 df bc
       -0.017538596 -0.02612653 0.08827424 -0.027262794
000110 20 3d 0a bc 7e 11 b4 bd 31 4f 2f bd 26 d8 95 3c
       -0.008437425 -0.08792399 -0.042800132 0.018291544
000120 23 a6 8e 3d 3d ac 1f bd 30 41 be bd 5d 9a f6 3b
       0.06965282 -0.03898262 -0.09289777 0.0075257258
000130 20 fb f0 3c 28 2c 8f bd 3b b2 01 3d 03 d7 7f bc
       0.02941662 -0.06990844 0.031664114 -0.015615228
000140 ad 4d b8 bc 78 70 79 bd 27 6a d2 bc 5d c8 7c 3d
       -0.022497976 -0.060898274 -0.025685383 0.06171452
000150 e6 06 f2 3c ac 13 9e 3d 4f 64 7d 3d c1 2f f4 3b
       0.029544305 0.07718596 0.06186324 0.007451982
000160 f6 91 75 3d 3b 01 e8 bc 71 5c 4c 3d 58 2c ed bc
       0.059953652 -0.0283209 0.049892846 -0.028951809
000170 9e 75 46 bc 8b 7b 52 3c bf 62 f2 bb 5f 6c 6a bc
       -0.012113003 0.012846838 -0.0073970254 -0.014308064
000180 9e 5b b9 3c b3 06 93 bd da 58 59 3d 02 0f 9e 3d
       0.022626694 -0.07179012 0.05306325 0.07717706
000190 96 35 09 3d 3e 70 ae bd 8d fb 88 3c f0 2a cd bc
       0.03349837 -0.08517502 0.016721511 -0.025044888
0001a0 bb 0d 43 bc 46 5d 27 3c 68 bb 80 bc 00 bf ed bc
       -0.011905129 0.010215109 -0.015714362 -0.02902174
0001b0 4e 91 3f 3d 93 b4 85 3d af ac 36 bc b4 b8 61 bd
       0.046769433 0.065285824 -0.011149569 -0.055107787
0001c0 79 bd fa bc 14 00 86 3d 1e dc 9f bd b0 78 4e 3c
       -0.030607926 0.06542984 -0.07805656 0.012602016
0001d0 53 ce 00 bd 5c c2 a5 3c b8 22 8f bd b0 21 ea bb
       -0.031446766 0.02023428 -0.06989044 -0.007145129
0001e0 9a a5 ff 3c df 58 34 bc 2e 41 d8 bc c6 9f 1c 3b
       0.031206895 -0.011007517 -0.026398268 0.0023898943
0001f0 7d 78 41 bd 64 7b 23 bd ff 09 40 3d 42 1d 88 bb
       -0.047234047 -0.039912596 0.046884533 -0.0041538784
000200 09 7d 40 3d 4e 32 ba 3c 25 31 1e 3d 10 c6 ba 3c
       0.046994243 0.022729065 0.038621087 0.022799522
000210 62 3a ac 3d 3c 29 a6 bd 41 0f a5 3d 22 5b 90 3b
       0.08409573 -0.081133336 0.0805955 0.004405395
000220 6d 87 85 bc 71 48 5b 3c 13 b1 7d 3c 29 51 ba bc
       -0.016299928 0.013383971 0.015484112 -0.022743778
000230 3c 35 b2 bd f1 19 4f bd 4b 4c 58 bd 62 79 63 3c
       -0.0870156 -0.05056185 -0.052807134 0.01388392
000240 98 0e 90 bd 3c 93 a6 bc 77 ae dc bb 7f 21 33 3c
       -0.070340335 -0.020333879 -0.006734665 0.010933279
000250 7b 9e a8 bd fc 73 1a 3d e4 47 cd 3c 26 69 e0 3c
       -0.08233353 0.037708268 0.025058694 0.027393889
000260 9a 6b 90 bd 72 df 66 bc 48 1a 8f bd a1 86 22 3d
       -0.07051773 -0.014091359 -0.069874346 0.039679173
000270 e6 df 1e bc d9 f5 ec 3c 2e 5d a0 bd cf cf 5c 3d
       -0.009696936 0.028925823 -0.078302726 0.05390912
000280 4a 13 63 bd 52 1c aa 3b a2 7a 8b bd 1e ad 76 bd
       -0.055438317 0.0051913643 -0.068105 -0.06022369
000290 1f b5 61 3d ce b7 81 3d 46 f6 4d 3a b8 fd a2 bd
       0.05510437 0.06333886 0.0007856827 -0.07958549
0002a0 7d f9 3d 3d 3d a5 34 bd 6b b7 e8 bc 1c 77 d7 bc
       0.04638051 -0.044102896 -0.028407773 -0.026301913
0002b0 a9 8a 41 bd 3b d9 9d 3d 26 dd 2c bd 68 e1 5e 3d
       -0.047251377 0.07707449 -0.04220309 0.054414183
0002c0 7b 3a c2 3c ab d3 9b bd 0b e0 3a bc 48 6b a7 3b
       0.023709526 -0.07608732 -0.011405955 0.0051092245
0002d0 5f 42 a1 3c 0f 57 5d bd 57 1e 10 3d 15 0e 3d 3b
       0.019684969 -0.054038104 0.035185184 0.0028847505
0002e0 cd 42 9b 3c d9 9e 3c 3d d6 58 22 3d a4 c5 a3 bd
       0.018952752 0.046049926 0.0396355 -0.07996681
0002f0 b0 7f 7f 3a b6 55 af bd 40 fa 12 3d e9 60 2f 3d
       0.0009746505 -0.0856127 0.03588319 0.04281703
000300 27 15 e2 bc 5b c9 1b bd c5 71 87 3d 8a a9 98 3d
       -0.027597977 -0.038033824 0.06613497 0.07454212
000310 93 4b 87 3c 6f e9 ed 3c e2 74 62 bc 6f 20 5d bd
       0.016515529 0.029041974 -0.013821812 -0.05398601
000320 2b d7 45 bd ca 51 7d bd b7 aa 94 3c 3c 50 45 3d
       -0.048300903 -0.06184558 0.01814781 0.04817222
000330 dd af a5 3d ac b3 7f 3d 9a 75 93 3d 63 f1 46 3d
       0.08090184 0.062427208 0.07200165 0.048570048
000340 1b a1 44 3d 41 d5 a7 bd 9c db 93 bd da a7 04 bd
       0.048005205 -0.08194972 -0.072196215 -0.03238664
000350 fa 61 47 3c d4 f7 fb bc f8 ea c4 bc c7 f0 8d bc
       0.0121693555 -0.030757822 -0.024037823 -0.017326726
000360 60 1c b0 bc 1b 01 4b bd 30 0f a8 bc be 25 7d bd
       -0.021497905 -0.0495616 -0.020515054 -0.061803572
000370 0d 7f fe 3c 78 ad 13 3d 16 df d7 3c e3 e1 44 3d
       0.031066442 0.036054105 0.026351493 0.048066985
000380 97 c7 82 3c 36 9f 48 bd d0 19 80 3d f6 1c 02 3d
       0.015964312 -0.04897996 0.06254923 0.0317659
000390 d8 2d 79 bd f5 3e 1f bd 02 cb 96 3d 6d f5 48 bd
       -0.060834736 -0.0388784 0.073629394 -0.04906218
0003a0 0e b5 00 bd c9 a7 c4 3c 6a 32 15 bc 24 f0 81 bd
       -0.031422667 0.024005787 -0.009106258 -0.06344631
0003b0 aa 7c f9 3c f7 e7 6f 3d a0 4f a0 3c 69 d9 53 bd
       0.030454952 0.05857083 0.019569218 -0.05172101
0003c0 e1 54 2c bd 8d 8c 81 3d 5d 3b 60 bd e8 3e b1 3d
       -0.042073134 0.06325636 -0.054744113 0.086545765
0003d0 da ee d7 3b ca 81 4a 3d 7a 30 9f 3d 33 1d a2 3d
       0.0065897526 0.049440183 0.07772918 0.079157256
0003e0 16 d7 ba bc c8 7c 74 bb 73 d9 e1 3b b5 11 32 3d
       -0.02280764 -0.003730582 0.006892377 0.043473918
0003f0 04 73 3e 3c cb 5b 8f bb d2 a1 4a 3a 4f ae 97 3d
       0.011624102 -0.0043749562 0.00077298016 0.074062936

fc2.bias f4 [84]
000000 29 8f b8 bc 98 5d 1d 3d ee 55 46 3d 9d 4e 8c 3d
       -0.022529202 0.038419336 0.048421793 0.06850932
000010 1a b8 07 bd 55 4f 61 3c f5 51 7c bd a6 2d af 3d
       -0.033134557 0.013751824 -0.061601598 0.085536286
000020 39 f9 47 ba 95 79 80 bb a7 d2 00 3d c0 8e 58 3d
       -0.00076283846 -0.0039207437 0.031450894 0.052870512
000030 d3 b9 12 3d ec 72 f2 bc d9 69 54 bd 82 91 10 bd
       0.035821747 -0.029595815 -0.051858757 -0.035295017
000040 ff 5c ae 3c 40 e3 71 bd 33 11 08 bd bc 41 35 3d
       0.021284578 -0.059054613 -0.033219527 0.044252142
000050 85 e3 01 bc d0 02 5d 3d 97 67 ec 3c b3 76 67 3d
       -0.00792778 0.05395776 0.02885799 0.056509685
000060 5e 4e 62 bd 54 c7 b1 bd 9a b9 a0 bc a4 4e 49 bd
       -0.055250518 -0.08680597 -0.019619752 -0.049147263
000070 3c 67 21 bd 46 69 61 3d 93 49 99 bd 83 64 37 3d
       -0.039405093 0.055032037 -0.07484736 0.04477359
000080 92 2f 88 bd 30 c6 14 bd d7 3c 7f bd 6e c1 f7 3a
       -0.06649698 -0.03632182 -0.06231388 0.0018902251
000090 d0 29 dc bc eb 8f 2d bd ec 7c 5d bc 7f ff 46 bd
       -0.026875407 -0.04237358 -0.013518553 -0.048583504
0000a0 60 d8 a7 ba 5d d7 df bc e4 80 40 bd b9 b3 18 3d
       -0.0012805574 -0.027324373 -0.04699792 0.037280772
0000b0 e6 51 04 bb 65 40 69 bd 29 3e a9 3d 6f 1d 07 3d
       -0.0020190417 -0.056946177 0.08263809 0.032987054
0000c0 db d8 6b 3d de c3 9b 3c c7 f9 d0 3c e4 9e 4d bd
       0.057579856 0.019014295 0.025509728 -0.050200358
0000d0 bb e1 15 bd 2c ad a7 3b f2 b7 87 bd b9 05 a6 3d
       -0.036592226 0.0051170792 -0.06626882 0.0810656
0000e0 8c e0 7a bc e6 6d 22 3d f6 a8 08 3d 85 1a 4d bd
       -0.015312325 0.03965559 0.03336426 -0.05007412
0000f0 97 60 af 3b 6d 6d b0 bd f4 3f 3e bd 7f cc a3 bd
       0.0053520906 -0.08614621 -0.04644771 -0.07997989
000100 23 75 56 bc 7a 77 ac 3d 63 15 b9 bd fc a8 a8 3c
       -0.013089451 0.08421226 -0.09037282 0.02058839
000110 14 3b b2 bd 51 8f 92 bc 94 c5 3d bd 9c a4 a0 3d
       -0.087026745 -0.017890604 -0.046331003 0.07843897
000120 fa d5 d6 bc dd b4 a2 3d bb c2 0c 3d 1d 4a b2 3c
       -0.026225079 0.07944653 0.034365397 0.021763856
000130 f4 52 83 3d 43 7a a1 3d ea 88 9e bd 88 c0 86 3c
       0.064123064 0.07884648 -0.07740958 0.016449228
000140 af d7 1f 3d 56 52 86 3d 7d 43 d2 bb 3f 83 a5 bd
       0.03902405 0.06558673 -0.0064167366 -0.08081674

fc3.weight f4 [10, 84]
000000 52 03 d4 3d b6 8b 54 3b d0 6e 03 3c 89 46 9a 3d
       0.10352196 0.0032431907 0.008022025 0.07532985
000010 e0 5a 60 bd bc 2e 8b bc 34 dc 22 bd 21 ee f4 bd
       -0.054774165 -0.016990058 -0.039760783 -0.11959482
000020 83 ed 2b 3c 32 a0 9c 3d 65 29 95 3d dc d6 a9 bd
       0.010493639 0.07647742 0.07283286 -0.08292934
000030 b9 9d c7 3d 6e e0 bf bd a4 3d cd 3d 99 e9 09 bd
       0.0974688 -0.093689784 0.10021523 -0.03367004
000040 fd 94 1f 3d 3a 00 85 bd 67 be 56 bd 5b ca 68 bd
       0.038960446 -0.06494184 -0.052427676 -0.056833606
000050 89 ab 4e bd 1a 9d 98 bd 84 5a 5d bd e1 2d b4 3d
       -0.050456557 -0.0745184 -0.0540414 0.08797813
000060 9d eb c1 3d 17 35 c8 3d 28 5e 3a 3d fd d3 bc bd
       0.09468768 0.09775751 0.04549995 -0.09220121
000070 05 be 68 3c f6 71 d9 3c b5 d8 95 3c 4d e7 8e bc
       0.01420546 0.026543599 0.01829181 -0.017444277
000080 12 ef 77 bd e8 11 06 bc ea b2 a6 3d 27 2d 71 3d
       -0.06053073 -0.00818298 0.08139594 0.05888095
000090 04 80 de 3c d9 93 d5 bd 01 fc ac 3d b3 9f 88 bd
       0.027160652 -0.1042859 0.084465034 -0.06671085
0000a0 ad fe c9 3c 0b 85 a0 3d e9 33 02 bd d5 b6 46 3d
       0.024657572 0.07837876 -0.031787787 0.048514206
0000b0 70 15 04 bd 76 89 0d bd f5 0e 06 3d fd e1 b6 3d
       -0.032247007 -0.03455492 0.032729108 0.089298226
0000c0 7e 09 16 bd e3 b4 a6 3d f3 04 24 3d 39 e7 a5 bd
       -0.036630146 0.0813997 0.040043782 -0.08100743
0000d0 9d 8a 7d bc 3a 2a c3 3d c4 32 9f bd ea a0 92 3d
       -0.0154749425 0.095295385 -0.07773355 0.07159598
0000e0 40 67 c0 3d 61 4e 2e 3d 65 1a 1b 3d 75 9b 35 bd
       0.093946934 0.042555217 0.03786697 -0.04433771
0000f0 a5 c4 1d 3d 1d df 89 bd 74 ea 37 bc 8f 75 6f bd
       0.038517613 -0.067320086 -0.011225332 -0.058461722
000100 8b 8e 85 3c df fd 29 3d 88 33 ca 3d 60 7f 9c 3d
       0.016303321 0.041501876 0.0987311 0.07641482
000110 6e 97 52 3c a6 c0 d3 bd a6 80 b2 bd 80 9f 18 bd
       0.012853486 -0.10339479 -0.08715944 -0.037261486
000120 9f 0a c4 3d aa 49 b6 bd 6b 71 b1 bc 7b 7e a9 bb
       0.09572338 -0.08900769 -0.021660527 -0.0051725483
000130 65 bc fe 3c 8b 18 d3 bd 19 5d 91 3d 5f d5 59 bd
       0.031095693 -0.103074156 0.07097835 -0.053182002
000140 50 7e 4b 3d 0a e6 b9 3d 82 e7 b2 3c 73 11 a1 3d
       0.049681008 0.090770796 0.021838907 0.07864656
000150 74 7f 2b 3d 74 44 94 bd 2c 4c 04 bc d6 64 a2 3c
       0.041869596 -0.07239619 -0.008074801 0.019823473
000160 4c 2d 5f ba 74 de 82 bd 95 78 6b 3d 5e 8f bc bd
       -0.00085135247 -0.06390086 0.057488043 -0.092070326
000170 c2 fb 80 3c e0 74 bf bd 56 6f b6 bd e4 2b e8 bc
       0.015745047 -0.09348464 -0.089079544 -0.028341241
000180 ef 20 8c bd 68 d6 d5 bb 31 e9 7f 3d 3c b1 6c 3d
       -0.06842219 -0.0065258034 0.062478248 0.05778621
000190 a9 f1 72 3d c2 13 97 3b 51 c2 cc bd a6 25 0c 3c
       0.059312496 0.0046105096 -0.099980004 0.008553898
0001a0 49 ca d3 3d 0d 4d 9d bd 0c 43 a2 bd ed 74 bc 3d
       0.10341317 -0.07680712 -0.079229444 0.09201989
0001b0 59 89 fe 3d ef c5 46 3d 65 a5 b6 bc f6 d5 ad bc
       0.12428541 0.048528608 -0.022295663 -0.021220189
0001c0 b3 84 7d 3b da 93 23 bc 35 85 c8 bd b4 59 e7 3d
       0.0038683831 -0.009983981 -0.09791032 0.112964064
0001d0 b9 0c a1 3d 44 4d 47 3d c9 5c 0b 3c e9 c4 28 3d
       0.07863755 0.04865767 0.008506008 0.041203413
0001e0 32 36 31 bd 89 03 7e bd e9 eb 8a 3d 39 85 a3 bb
       -0.043264575 -0.06201509 0.067832775 -0.0049902466
0001f0 7a d1 bb bc 89 d4 40 bd d4 3c 49 bd c3 e7 02 3d
       -0.022927035 -0.04707769 -0.049130276 0.031959306
000200 c3 1f 81 3c 3e 39 f0 3b e9 46 c9 3d 11 f2 ea 3c
       0.015762215 0.0073310426 0.09827978 0.02867988
000210 f5 4e 38 3d 5b 7f dd bd 34 3d 9a bd 26 02 94 3c
       0.044997174 -0.10815307 -0.07531205 0.01806743
000220 2b 86 00 3e fc 0f dd 3c f3 a9 c2 3d 52 1d b2 3d
       0.12551181 0.026985161 0.095050715 0.08696999
000230 8b 1d b8 bd 62 0e 8d bd 74 ed 1e 3b b7 ca fc 3c
       -0.0899001 -0.06887509 0.002425042 0.03085838
000240 32 3e bc bd 3a 36 09 bd be aa d5 bd f7 41 b9 bb
       -0.0919155 -0.03349898 -0.10432957 -0.0056536156
000250 51 53 b9 3b 19 d6 85 3c d4 44 af 3d 49 df f2 3c
       0.005655684 0.016337441 0.0855805 0.029647486
000260 ae 7e d4 bc 49 10 62 bc 52 53 9a bc dd 2d a0 3d
       -0.025939312 -0.013797828 -0.018838558 0.07821248
000270 b7 61 70 bd bc 7d 8d bb 68 e0 00 bd d0 84 9d bd
       -0.058686938 -0.004317967 -0.03146401 -0.076913476
000280 c6 9c 83 3d 5b f0 78 3d 28 8d 34 3d d2 8d d6 bb
       0.064263865 0.060776096 0.04407993 -0.006547668
000290 bd 1f a6 bd 3a 1a 31 bd 24 d3 2c 3d 3b d2 bd bd
       -0.08111522 -0.043237902 0.042193547 -0.09268614
0002a0 04 c5 b4 3c 2e 50 ac bd 49 bc 18 3d 9e b7 0e 3b
       0.0220666 -0.084137306 0.037288938 0.0021776925
0002b0 42 50 77 bc a2 da 7c 3d 45 72 20 bd ad d2 69 bd
       -0.015094819 0.061731942 -0.039171476 -0.05708568
0002c0 ac e2 7e bd 91 73 82 3d 1d 89 a7 3d a1 f5 94 3d
       -0.06222789 0.06369699 0.08180449 0.072734125
0002d0 da 22 79 bd 00 32 73 bd 65 84 60 3d 03 07 ed bc
       -0.060824253 -0.059373856 0.05481376 -0.028934008
0002e0 2e 54 09 3b 59 25 9c bd 34 af f3 bc 53 22 ab 3d
       0.0020954716 -0.07624311 -0.02974663 0.08356156
0002f0 a4 de aa bd aa d9 ea 3d 81 4a 74 bd dd c1 d3 3d
       -0.083432466 0.114672974 -0.059641365 0.10339711
000300 ac 3f 79 bd bc 46 3d 3d 9c a3 c5 3d 2d 68 d8 bc
       -0.060851738 0.046210036 0.09650347 -0.026416862
000310 f5 b0 21 bd 02 b6 8f ba 33 63 13 3e 95 3a 43 bd
       -0.0394754 -0.0010964277 0.1439331 -0.04766329
000320 bc 3a 3b 3d 9e 2a 98 3d 69 b5 1a 3d 5c 0f 98 3d
       0.04571031 0.074300036 0.037770662 0.074248046
000330 b8 ae 67 bd 4d ce 2f bd f4 a8 90 3d 58 41 c7 3d
       -0.05656311 -0.042921353 0.07063475 0.0972926
000340 a0 a7 b4 3d f5 49 6b 3d db 94 1c 3d c6 48 2d 3d
       0.088210344 0.057443578 0.038227897 0.04230573
000350 35 bf 73 3d 3d 65 8e 3d af 92 d4 3d 2a 06 a4 3d
       0.05950852 0.069529034 0.1037954 0.08008988
000360 8a 1a f6 bc 57 57 47 bd a1 96 8d 3d 59 31 cf 3d
       -0.030041952 -0.04866728 0.06913496 0.10116834
000370 51 19 76 bd 3a cd a2 3d 14 17 58 3d 95 7d 54 bd
       -0.060082737 0.079493 0.052756384 -0.051877577
000380 dc 5d 65 bd c1 7a 8d 3d f2 a6 02 bd 75 ad 32 3c
       -0.055997714 0.06908179 -0.031897493 0.010905613
000390 b0 ac 2a bd 98 18 92 bc 62 e8 0f 3d 5c d4 9d bd
       -0.041668594 -0.017833993 0.035133727 -0.0770652
0003a0 ea 49 3a 3d ef 65 17 bd 2a 17 4d 3c 07 d1 2f 3d
       0.045480646 -0.036962446 0.01251773 0.042923953
0003b0 9b 43 0d 3c 27 c0 70 bd 02 af 3d 3d e3 0c aa bd
       0.008622075 -0.058777 0.04630948 -0.08303239
0003c0 26 d8 2a bd 46 2e 54 bd 00 d6 6e 3d 64 8b 48 bd
       -0.04171004 -0.051801942 0.058309555 -0.04896106
0003d0 0d 60 b7 3c 32 42 ce bd 82 47 a9 bd bf d8 be 39
       0.022384668 -0.100712195 -0.08265592 0.00036401112
0003e0 42 55 d4 bd 0f 85 50 3d 3b 79 ae bd bc f0 c5 3d
       -0.10367824 0.050908145 -0.085192166 0.09665057
0003f0 0a 31 8c 3b f7 90 7b 3d f8 d5 98 3d 21 22 5d bd
       0.004278307 0.061417546 0.07462686 -0.053987626

fc3.bias f4 [10]
000000 4b c6 56 3c e6 cc 78 3c d5 16 5b 3c f8 46 ac 3d
       0.0131088 0.01518557 0.013372143 0.08411974
000010 ca 1b 01 3e 88 12 22 bd 6f 4a a0 bd 82 2f b1 bd
       0.12608257 -0.039568454 -0.07826697 -0.086516395
000020 b5 21 90 bd 10 b1 b7 3d
       -0.07037679 0.08969319
